mlp_submission.pth (torch, 12750 bytes, 5 tensors)

fc1.weight f4 [64, 5]
0.56648463 0.19017377 0.5165226 0.34906596 -0.62555814 0.7130379 0.69858414 -0.0010821826
-0.3830183 0.50021935 0.107826315 -1.0968902 0.1357941 0.9072556 0.24421842 -0.07371253
-0.32819456 0.08184972 -0.22108546 0.27782756 1.8751665 0.44669425 1.0852174 1.7581366
1.8972961 0.9573331 0.17285772 1.5851569 1.2135493 1.5720701 0.01909777 0.91633755
-0.7597491 0.94425046 0.7754491 0.7291889 0.4214704 0.5680488 0.084078066 0.24258171
0.25394833 0.1478811 0.006660808 -0.27031717 0.1221672 2.4944894 -0.5904765 -0.1442255
-0.2104815 0.0072856788 0.4789981 0.3630264 -0.053539112 -0.48923168 0.096324764 0.78716695
-0.059143443 -0.70835036 -0.6524005 0.27138242 0.6329039 0.60790044 0.13669953 0.3975622
-0.30334735 0.5244741 0.2740961 0.22747101 0.29481494 -0.9471164 0.22082107 -0.16836485
0.041512392 0.0014012492 -0.18549415 -0.07137227 0.05865884 0.0662378 0.03771233 -0.13649966
0.4506624 0.014516585 0.21711494 0.63284314 -0.22633255 0.3220499 0.2104346 -0.16370304
-0.0539245 -0.20096499 0.21990849 0.014295763 -0.005194232 0.11761342 -0.00080544676 1.0298067
0.5496303 0.28618053 0.6956498 -0.3215059 0.059994 0.49314502 0.25599268 -0.43924293
-0.051902708 1.1588256 1.1096716 0.14260466 -0.15965201 0.2293372 -0.119283885 -0.016109575
0.33052853 0.056860868 -0.096036136 -0.26732692 0.9885965 -1.3797865 1.9367574 1.5380042
0.34407997 0.54883635 -0.053665724 -0.08864019 0.22879529 1.1080471 -0.47042087 0.9666184
1.3007665 1.7764986 0.13337046 0.070901304 0.11684705 -0.1372024 -0.16300018 0.83303225
0.63302594 -1.1587265 2.0886433 1.3313642 0.36484033 0.3264046 -0.34932375 0.17989698
0.24199535 -0.2569751 0.5411349 0.8539599 0.48384702 -0.18156213 0.5126783 -0.9649968
0.14999598 0.45386347 0.94606936 2.9104815 -1.3870728 1.7349981 -1.4178047 -1.0477482
2.1055706 0.7436561 0.1635763 1.2945478 1.6108838 2.0366375 -0.0060816305 0.58530575
0.85882396 1.7424804 1.6623974 -0.05973374 0.91333973 1.3936301 2.0633016 -0.09023976
-0.20634064 0.043734252 -0.23146783 0.2909315 -0.63163173 0.39592043 1.53452 -0.54377836
0.3293165 0.17188695 -0.77085304 0.1060269 0.8974821 0.09757152 0.6065128 0.03818649
0.33000365 0.574806 -0.034800623 -0.005540649 -0.38200164 -0.13882348 0.8565884 -0.56200165
-0.0575511 -0.56215405 -0.14478828 0.82501376 -0.20119913 -0.2890046 -0.09167528 0.12900351
-0.012985141 0.22255993 0.88229537 0.853261 -0.009506836 -0.4310366 0.44474816 -0.63282776
0.40578324 0.98982334 -0.1478077 0.27979395 0.007242534 1.1065475 -1.6453035 2.3713052
1.9172904 -0.24953438 0.07702767 0.2518272 0.040347327 -0.098375715 2.5658607 -1.5185153
1.1633416 -1.1549306 -0.46640772 0.9016696 0.27737188 -0.80009294 -0.57601994 -0.27820095
0.004012109 -0.47543326 -0.05448548 0.65284705 -0.18870713 2.1128867 -0.17040513 -0.14407639
2.2663243 1.7685808 0.52314717 -0.78585744 0.29921806 0.8237851 -0.72237015 0.6647319
00000000: 2305 113f eabc 423e d33a 043f c6b8 b23e
00000010: 9424 20bf a789 363f 69d6 323f 06d8 8dba
00000020: fa1a c4be 600e 003f 0bd4 dc3d e666 8cbf
00000030: 9c0d 0b3e e741 683f 6514 7a3e 98f6 96bd
00000040: 1e09 a8be d3a0 a73d 3a64 62be 6a3f 8e3e
00000050: 7505 f03f 1cb5 e43e 67e8 8a3f 9f0a e13f
00000060: 99da f23f c813 753f 9d01 313e 6ce6 ca3f
00000070: 9555 9b3f 9839 c93f ed72 9c3c 1995 6a3f
00000080: eb7e 42bf 66ba 713f d583 463f 20ac 3a3f
00000090: f8ca d73e a56b 113f 1f31 ac3d 5767 783e
000000a0: 8405 823e 256e 173e e842 da3b 0367 8abe
000000b0: cc32 fa3d b7a5 1f40 7829 17bf d9af 13be
000000c0: 7688 57be b4bc ee3b 3d3f f53e 99de b93e
000000d0: d44b 5bbd 937c fabe eb45 c53d c683 493f
000000e0: 6540 72bd 7356 35bf b803 27bf a3f2 8a3e
000000f0: fd05 223f 5d9f 1b3f f6fa 0b3e 468d cb3e
00000100: 5850 9bbe ef43 063f 5356 8c3e 29ee 683e
00000110: fcf1 963e 3876 72bf eb1e 623e d667 2cbe
00000120: e608 2a3d 1faa b73a 2ef2 3dbe a02b 92bd
00000130: 4044 703d afa7 873d 3f78 1a3d 91c6 0bbe
00000140: 39bd e63e f8d6 6d3c 6153 5e3e 0202 223f
00000150: b8c3 67be b9e3 a43e 2b7c 573e c5a1 27be
00000160: f0df 5cbd c4c9 4dbe b12f 613e c738 6a3c
00000170: 6034 aabb 4edf f03d 9e24 53ba b5d0 833f
00000180: 92b4 0c3f 4186 923e 1b16 323f 6c9c a4be
00000190: 45bc 753d 817d fc3e 7911 833e 73e4 e0be
000001a0: ef97 54bd 6654 943f b809 8e3f f506 123e
000001b0: d17b 23be 5fd7 6a3e 1c4b f4bd 3af8 83bc
000001c0: 093b a93e f1e6 683d 98ae c4bd 13df 88be
000001d0: a914 7d3f d89c b0bf abe7 f73f 52dd c43f
000001e0: 402b b03e 8a80 0c3f 97d0 5bbd fd88 b5bd
000001f0: 5049 6a3e 7dd4 8d3f 01db f0be 4e74 773f
00000200: 847f a63f 4e64 e33f 4492 083e b434 913d
00000210: 824d ef3d c97e 0cbe 85e9 26be 9a41 553f
00000220: fd0d 223f 2651 94bf 55ac 0540 246a aa3f
00000230: 5acc ba3e 811e a73e 90da b2be ea36 383e
00000240: a1cd 773e 3e92 83be d187 0a3f 1e9d 5a3f
00000250: ccba f73e 6ceb 39be e33e 033f 080a 77bf
00000260: 8c98 193e cb60 e83e 9a31 723f 5445 3a40
00000270: 9a8b b1bf 6b14 de3f a07a b5bf 9d1c 86bf
00000280: abc1 0640 3f60 3e3f 8c80 273e beb3 a53f
00000290: 7131 ce3f 4558 0240 6a48 c7bb 99d6 153f
000002a0: e3db 5b3f 9909 df3f 70c9 d43f 5eab 74bd
000002b0: a2d0 693f 7962 b23f 220d 0440 a0cf b8bd
000002c0: f64a 53be b022 333d e705 6dbe f9f4 943e
000002d0: 9eb2 21bf 15b6 ca3e 276b c43f 0f35 0bbf
000002e0: 2c9c a83e 2203 303e a056 45bf a224 d93d
000002f0: 63c1 653f 94d3 c73d 6c44 1b3f 7069 1c3d
00000300: 3df6 a83e 7c26 133f 198b 0ebd 558e b5bb
00000310: b895 c3be be27 0ebe 6149 5b3f 57df 0fbf
00000320: b4ba 6bbd 54e9 0fbf 6143 14be 1a34 533f
00000330: 2507 4ebe 69f8 93be 40c0 bbbd 7f19 043e
00000340: a1bf 54bc c0e6 633e 1cde 613f 506f 5a3f
00000350: 8fc2 1bbc d4b0 dcbe 08b6 e33e 0001 22bf
00000360: d2c2 cf3e 1065 7d3f e75a 17be 2741 8f3e
00000370: c752 ed3b 59a3 8d3f 4e99 d2bf 77c3 1740
00000380: c669 f53f f185 7fbe afc0 9d3d 7fef 803e
00000390: 3d43 253d 3579 c9bd 1037 2440 b65e c2bf
000003a0: 61e8 943f c4d4 93bf fecc eebe d2d3 663f
000003b0: b003 8e3e e4d2 4cbf 0b76 13bf 5b70 8ebe
000003c0: 0278 833b fd6b f3be 2b2c 5fbd fc20 273f
000003d0: 713c 41be 8939 0740 af7e 2ebe c388 13be
000003e0: 750b 1140 db60 e23f f9ec 053f f42d 49bf
000003f0: 1c33 993e 95e3 523f 40ed 38bf df2b 2a3f

fc1.bias f4 [64]
-0.27530763 -0.2583628 -0.27777418 -0.4522619 1.1861421 0.85659766 0.09103606 -0.70280194
-0.30566195 1.534602 -0.5797228 -0.45769602 -0.2874226 -0.06598908 -0.61636674 -0.19050261
-0.37033305 -0.53006953 -0.47140193 -0.51609695 -0.3312787 -0.39927432 -0.5634997 1.77736
-0.16503215 0.89419085 -0.48772287 1.5340254 -0.26971212 -0.47587946 -0.3673935 1.2557918
1.5206283 0.7579231 0.87964976 -0.36226237 0.25611934 -0.13004106 -0.5175953 -0.3344262
-0.3450111 -0.60907215 -0.21394584 -0.2664984 2.140192 -0.5246458 0.77406144 -0.63819957
-0.21504706 1.588301 0.12015061 -0.16689043 -0.44790193 -0.73789257 -0.5339364 -0.57129914
-0.47566533 -0.1564633 -0.6499836 -0.15224463 -0.36045027 -0.7419232 -0.2467846 -0.22511387
00000000: 1ff5 8cbe 2148 84be 6b38 8ebe df8e e7be
00000010: 81d3 973f fc49 5b3f 1d71 ba3d d4ea 33bf
00000020: b97f 9cbe d76d c43f b768 14bf 2257 eabe
00000030: 0e29 93be 4825 87bd 36ca 1dbf 1e13 43be
00000040: 4b9c bdbe a3b2 07bf 985b f1be ee1e 04bf
00000050: 5d9d a9be af6d ccbe 8441 10bf 8880 e33f
00000060: 30fe 28be b1e9 643f d0b6 f9be f25a c43f
00000070: b517 8abe 79a6 f3be 001b bcbe c9bd a03f
00000080: f3a3 c23f 4007 423f ba30 613f 747a b9be
00000090: 1322 833e 7c29 05be 2081 04bf e939 abbe
000000a0: 4ba5 b0be 27ec 1bbf 9e14 5bbe 7a72 88be
000000b0: e8f8 0840 304f 06bf e428 463f 0c61 23bf
000000c0: 4c35 5cbe 724d cb3f 8611 f63d 53e5 2abe
000000d0: 6753 e5be 87e6 3cbf 0eb0 08bf a940 12bf
000000e0: 688a f3be ea37 20be 5365 26bf 04e6 1bbe
000000f0: f08c b8be aeee 3dbf 1ab5 7cbe 4084 66be

fc2.weight f4 [32, 64]
-0.10090868 -0.0744185 -0.044320747 -0.06428239 0.0019689754 -0.036093198 -0.05323814 -0.08742605
0.01863232 0.004319938 -0.10226531 0.0551412 -0.0046868473 -0.12289499 -0.15113892 -0.00915736
0.0899628 0.019836215 0.025287136 0.03170851 -0.038381875 0.061769754 -0.08990818 -0.051257394
0.062987514 -0.02879898 -0.032944802 -0.12961836 0.025728688 -0.10127033 0.00736171 -0.09471956
-0.04547394 -0.076240234 -0.11497023 -0.0653412 0.038181543 0.01853814 -0.12166901 -0.11789818
0.034845307 0.0074106306 0.054139465 0.03300263 0.08122215 -0.07004465 -0.11369571 0.08284817
-0.043121655 -0.08927631 -0.10428898 -0.06299673 0.07609773 0.05575174 0.08301006 0.05373619
0.005917728 -0.18400197 -0.123531446 -0.024078876 -0.08673128 -0.11927518 0.028936595 -0.023028493
0.10828502 -0.3303816 -0.56599355 0.045783214 -0.47911033 -0.40952185 -5.8684173 6.414402
0.09942319 -0.25303409 0.15429412 -0.45846608 -0.4239246 -0.4679483 -0.075660735 -0.08416415
-0.46085927 -0.30398875 -5.168519 -6.782726 -0.81921 0.25283217 -0.0127064055 -0.11242747
0.7740326 -0.37695 0.009143636 -0.15060306 4.4046326 -4.061952 -0.063485645 -0.56684107
-0.27221066 -0.52035767 0.012071744 0.04374853 -0.008531367 -0.15051922 -2.719665 -0.037982892
-0.07460351 0.01232025 3.5598197 -0.16420282 -0.1575922 -0.011668922 -0.5126739 -0.08104983
0.14730066 -0.11723983 -0.6310738 -0.35182092 -1.3878628 0.08849102 -0.52520895 0.058605503
-4.698517 -0.08569353 -0.03429381 0.1272738 -0.023313658 -0.32656777 -0.44324085 -0.55858904
-0.19106624 0.03791238 0.088070296 0.065229625 0.09634901 0.22327472 -2.9728293 5.603447
0.087405264 -0.19578874 -0.07635295 0.4885231 -0.13001016 -0.33329982 0.015954241 0.0042907805
-0.5110689 -0.3737862 -2.1274307 -6.04056 2.3126607 2.943143 -0.18804249 -0.59895885
1.3606308 0.3126173 0.0033400767 0.2406432 1.7663293 -2.0515358 0.3101366 -0.10016294
-0.57171 -0.14010254 0.72564465 -0.18642338 0.7864877 -0.026334919 -2.96062 -0.36850005
-0.12244584 -0.22604424 5.1627455 0.16084363 -0.5313387 -0.25238 -0.12956513 0.34731463
-0.033370398 -0.10253383 -0.55763197 -0.32663754 -1.0407716 0.6626227 -0.12035843 0.5665991
-4.590813 -0.6559363 0.38107643 1.300624 -0.01970004 0.17358424 -0.03701417 -0.3405554
0.035690233 -1.250624 -0.0389951 -0.05375896 -0.4579941 -0.48609817 -1.3788218 1.9739494
-0.55282223 -0.34562242 2.4414651 -0.24358049 -0.20350675 -0.40719151 0.112713136 0.024521243
-0.43213192 0.31828767 -1.4967825 -3.9560833 0.4753525 1.1485736 -0.7352748 -0.8803346
1.9882594 -0.38985547 -0.11097456 -0.4959593 -1.1692154 -0.95178616 0.19561134 -0.48005566
-0.62799853 -0.33200666 -0.1571871 -0.036217444 -0.78900015 0.33453462 -1.2943083 0.04870198
0.11980455 0.025349636 -0.8092715 -0.35398132 -0.8836795 -0.17217636 -0.6356788 -0.14038236
-0.47487113 -0.33013967 -1.2041312 -0.4798751 -1.7600325 0.16433805 -0.16217175 -0.31125632
-2.708528 -0.44687143 -0.07355065 -1.0468615 -0.046525646 0.08235769 0.029235503 0.059630282
00000000: 36a9 cebd ba68 98bd ac89 35bd 7ca6 83bd
00000010: ed09 013b 76d6 13bd 3c10 5abd 6e0c b3bd
00000020: cfa2 983c 448e 8d3b 7a70 d1bd bddb 613d
00000030: 2094 99bb 5eb0 fbbd 29c4 1abe c008 16bc
00000040: 6b3e b83d 8f7f a23c f826 cf3c c8e0 013d
00000050: 5036 1dbd 4802 7d3d c821 b8bd 46f3 51bd
00000060: 99ff 803d d7eb ebbc 21f1 06bd adba 04be
00000070: f8c4 d23c d266 cfbd 803a f13b 54fc c1bd
00000080: e242 3abd d723 9cbd 8375 ebbd 9bd1 85bd
00000090: 4064 1c3d 4cdd 973c 9a2d f9bd 9a74 f1bd
000000a0: f4b9 0e3d e0d4 f23b 58c1 5d3d c42d 073d
000000b0: cc57 a63d 9273 8fbd 4cd9 e8bd 4dac a93d
000000c0: 55a0 30bd 7fd6 b6bd 7695 d5bd 6e04 81bd
000000d0: 20d9 9b3d f05b 643d 2e01 aa3d 7b1a 5c3d
000000e0: 80e9 c13b 036b 3cbe 0efe fcbd 1041 c5bc
000000f0: 2ba0 b1bd 8c46 f4bd 700c ed3c 40a6 bcbc
00000100: 89c4 dd3d c727 a9be f4e4 10bf 2e87 3b3d
00000110: f34d f5be d9ac d1be 13ca bbc0 c842 cd40
00000120: 639e cb3d af8d 81be 47ff 1d3e 11bc eabe
00000130: a50c d9be eb96 efbe 04f4 9abd 415e acbd
00000140: bff5 ebbe 6aa4 9bbe 8264 a5c0 170c d9c0
00000150: bfb7 51bf 3873 813e 872e 50bc 6040 e6bd
00000160: 0027 463f 97ff c0be 30cf 153c b037 1abe
00000170: c0f2 8c40 83fb 81c0 c304 82bd 7f1c 11bf
00000180: 325f 8bbe 2936 05bf 90c8 453c a931 333d
00000190: 26c7 0bbc b621 1abe fe0e 2ec0 f393 1bbd
000001a0: bac9 98bd e0da 493c 16d4 6340 c924 28be
000001b0: da5f 21be 022f 3fbc 993e 03bf 74fd a5bd
000001c0: fcd5 163e 701b f0bd 0d8e 21bf df21 b4be
000001d0: 7da5 b1bf c83a b53d 1874 06bf 530c 703d
000001e0: 405a 96c0 1780 afbd ab77 0cbd 1054 023e
000001f0: 49fc bebc e433 a7be 77f0 e2be b1ff 0ebf
00000200: dea6 43be 034a 1b3d 335e b43d 1c97 853d
00000210: a152 c53d 21a2 643e d642 3ec0 704f b340
00000220: 8801 b33d d87c 48be ef5e 9cbd b31f fa3e
00000230: 6221 05be 46a6 aabe 78b2 823c ad99 8c3b
00000240: 69d5 02bf e860 bfbe d327 08c0 444c c1c0
00000250: a202 1440 745c 3c40 368e 40be 5e55 19bf
00000260: 2629 ae3f 600f a03e 30e5 5a3b 2c6b 763e
00000270: 1417 e23f 5d4c 03c0 39ca 9e3e 3a22 cdbd
00000280: 965b 12bf 0a77 0fbe d9c3 393f c5e5 3ebe
00000290: 4257 493f 54bc d7bc cc7a 3dc0 0aac bcbe
000002a0: e2c4 fabd 2478 67be 3635 a540 31b4 243e
000002b0: d005 08bf f437 81be b9ac 04be 39d3 b13e
000002c0: 66af 08bd 42fd d1bd f8c0 0ebf 093d a7be
000002d0: 0138 85bf a4a1 293f 7b7e f6bd a30c 113f
000002e0: f1e7 92c0 71eb 27bf 731c c33e d97a a63f
000002f0: fa61 a1bc 11c0 313e 2c9c 17bd 475d aebe
00000300: ec2f 123d 7214 a0bf 53b9 1fbd 5b32 5cbd
00000310: 347e eabe dce1 f8be 3c7d b0bf 60aa fc3f
00000320: c285 0dbf 6cf5 b0be f740 1c40 2a6d 79be
00000330: 1364 50be 687b d0be 25d6 e63d c6e0 c83c
00000340: 6540 ddbe 9af6 a23e 9296 bfbf 7830 7dc0
00000350: 6761 f33e 7604 933f f83a 3cbf 9c5d 61bf
00000360: 497f fe3f 239b c7be a146 e3bd 61ee fdbe
00000370: daa8 95bf 42a8 73bf 574e 483e dbc9 f5be
00000380: 83c4 20bf c7fc a9be a8f5 20be be58 14bd
00000390: eafb 49bf 1f48 ab3e e5ab a5bf ba7b 473d
000003a0: 175c f53d 0aaa cf3c 6b2c 4fbf 0a3d b5be
000003b0: d238 62bf 004f 30be d9bb 22bf 65c0 0fbe
000003c0: 4f22 f3be 1108 a9be f920 9abf 30b2 f5be
000003d0: bf48 e1bf 3c48 283e 5a10 26be fd5c 9fbe
000003e0: 8658 2dc0 55cc e4be b9a1 96bd 8fff 85bf
000003f0: ad91 3ebd 26ab a83d 4b7f ef3c e23e 743d

fc2.bias f4 [32]
-0.11055579 -0.070586994 -0.08738842 -0.73415756 -0.26385978 -1.4137106 -0.1002604 -0.06400528
-0.14084008 -0.54935056 -0.2834452 -0.11617422 -0.17023711 -0.12336892 -0.2486057 -0.2774691
-0.47465548 -0.24085422 -0.6838331 -0.05727987 -2.0307875 -0.2531401 -0.18909772 -0.049470264
-0.08549803 -0.2183813 -1.4030446 -0.6433924 -0.07532278 -0.40684217 -0.52615374 -0.103614055
00000000: 136b e2bd ea8f 90bd b3f8 b2bd c0f1 3bbf
00000010: a118 87be 78f4 b4bf 5355 cdbd 3315 83bd
00000020: 6238 10be 3da2 0cbf bb1f 91be c0ec edbd
00000030: a352 2ebe d8a8 fcbd 7e92 7ebe 6e10 8ebe
00000040: 0b06 f3be 7da2 76be b00f 2fbf 4c9e 6abd
00000050: 6cf8 01c0 949b 81be d5a2 41be 55a1 4abd
00000060: 9719 afbd 599f 5fbe f796 b3bf 5db5 24bf
00000070: d442 9abd 9e4d d0be 03b2 06bf 9b33 d4bd

fc3.weight f4 [1, 32]
-0.010341073 -0.13322319 -1.2576619 0.025967613 -0.030871114 0.7849248 0.012371521 -0.08168573
-0.53927696 -0.029136773 -0.025743663 -0.0066657998 -0.16952023 0.050294157 -0.016086105 -0.47640362
0.003163323 -0.023989184 -0.37328863 0.13721377 0.0048771272 0.025746318 0.006898297 0.0136683285
0.027337007 -0.124439575 0.13538615 0.11973485 0.04624443 0.08694752 -0.023471717 0.0009945146
00000000: 9b6d 29bc a96b 08be 11fb a0bf 08ba d43c
00000010: 6be5 fcbc d5f0 483f ecb1 4a3c d94a a7bd
00000020: 0e0e 0abf 3eb0 eebc 60e4 d2bc c86c dabb
00000030: b696 2dbe 3f01 4e3d 02c7 83bc 2deb f3be
00000040: c14f 4f3b f784 c4bc b01f bfbe c481 0c3e
00000050: 4fd0 9f3b f1e9 d23c 1c0b e23b 20f1 5f3c
00000060: dcf1 df3c 2dda febd aba2 0a3e 8c37 f53d
00000070: cd6a 3d3d 8b11 b23d c247 c0bc 5f5a 823a
